record/test/max_episodes1_max_steps100_gamma0.9_time12_15_13_44_06_seed32013/model/qmixer_net0.pth (torch_old, 126638 bytes, 27 tensors)

Agents_INT_01.fc1.weight f4 [128, 5]
000000 54 a9 e0 bd a0 e2 e0 bb d7 2d ff bd 7d ae dd bd
       -0.10969797 -0.0068629533 -0.12459915 -0.108242966
000010 b3 fa 2d 3e 0f ac 46 bd d2 07 1f bb 1e d6 64 3d
       0.16990165 -0.04850393 -0.0024266136 0.05586826
000020 4b e5 db 3b 1e 14 3e 3d df 88 1a 3e 4f cd b4 3d
       0.0067106835 0.046405904 0.15091275 0.08828222
000030 17 8e b1 3d f9 eb 4f 3e 3a e9 d4 3d 1e aa 01 3d
       0.086696796 0.2030486 0.10396047 0.031656377
000040 1a 40 4d bc 35 3a 8a 3d 33 48 bc 3d 45 9a 47 bc
       -0.01252749 0.06749383 0.091934584 -0.012182777
000050 41 5e 0e bc 17 4c 64 bd 8b 88 25 bb 03 55 da 3d
       -0.008689464 -0.055736627 -0.0025258388 0.10660746
000060 61 2c 2c be 10 6e ed 38 64 4d 6e be 82 a8 eb bd
       -0.16813804 0.000113215414 -0.2327171 -0.1150675
000070 14 4c bd bc 03 06 3e be 5e 8a ea bd 53 b1 a6 bc
       -0.023107566 -0.18556981 -0.11452173 -0.020348227
000080 83 7a fb 3d 19 b8 b5 3a 09 48 a5 bd 89 1e 88 3d
       0.12279227 0.001386407 -0.0807038 0.06646449
000090 85 42 1e 3d d4 69 2d 3e 7b c0 5a bc ca 4d 59 be
       0.038637657 0.16934901 -0.013351555 -0.2122108
0000a0 24 83 6b bb 62 39 6f bd a6 b2 39 bd 65 26 97 bd
       -0.003593632 -0.058404334 -0.045336388 -0.0738037
0000b0 ce 9e 15 3e 69 c4 01 3d d8 8a 63 be cf aa a2 3d
       0.1461136 0.031681452 -0.22220933 0.079427354
0000c0 49 c1 7c 3d da 54 59 3d 9c d6 04 3e fe 3c 3b 3e
       0.06170777 0.053059436 0.12972492 0.18284985
0000d0 45 02 de 3c 1b 1b 14 be eb 9b 93 3d 16 78 13 be
       0.027100692 -0.14463465 0.07207473 -0.14401278
0000e0 8b 8a ae be ec b0 30 3e 7c c0 05 bb 7d cf a1 bc
       -0.34090075 0.1725499 -0.002040892 -0.019752258
0000f0 22 61 56 be 35 36 9e bd a6 62 24 bd f2 60 57 3e
       -0.2093549 -0.07725183 -0.04013314 0.21033075
000100 6d 09 84 bd 4f e5 15 bd b0 56 9e 3c 31 a6 ce bd
       -0.0644711 -0.03659564 0.019328445 -0.10090292
000110 e3 42 13 3c f5 8f c6 bd 12 87 2a 3e 36 ac 93 3c
       0.008988115 -0.096954264 0.16653088 0.018026453
000120 63 f4 f2 bc cd 94 27 3e ea 61 08 3e b1 d2 9c 3d
       -0.029657548 0.16365357 0.13318601 0.07657374
000130 48 da cb 3c 9e 9a 9d bd 0a d4 35 bd 9c ef 1f 3d
       0.024884358 -0.076955065 -0.04439167 0.03904687
000140 b7 39 f0 bd 6a af 65 3e 19 ad 43 be 58 2d 2a be
       -0.11729758 0.22430196 -0.19109 -0.1661886
000150 7b ca 0a 3e 9f 39 73 bd ed cc 92 bd 30 c5 4c be
       0.13553803 -0.059381124 -0.07167993 -0.19997096
000160 a5 f8 f0 3d f7 cd a0 bc b4 ee 9a 3d b9 21 01 3e
       0.11766175 -0.019629462 0.0756506 0.1261052
000170 40 f6 0f 3d f5 0c 01 be 86 df 01 3e 40 99 6a 3c
       0.03514695 -0.12602599 0.12682924 0.014318764
000180 ee 93 33 3e 6b b7 eb bd 75 bc 6a bd e0 e6 1d bd
       0.175369 -0.115095936 -0.057308633 -0.038550258
000190 6a 11 fa bd c1 68 da 3b f3 c9 37 3e be 2b 9c bd
       -0.12210353 0.0066653197 0.17948131 -0.07625531
0001a0 7d b5 80 3e 4f bb fe 3d 9d 91 d4 3d a8 54 b5 bc
       0.25138465 0.1243807 0.10379336 -0.022135094
0001b0 b6 35 8d 3d ec 99 39 3e 39 e0 25 3d 09 e5 74 bd
       0.0689501 0.18125123 0.04049704 -0.059788737
0001c0 b4 70 49 bd 28 f3 f2 3d ab c1 ca bb 98 a2 81 3e
       -0.049179748 0.118627846 -0.006187638 0.25319362
0001d0 29 69 a3 3d 4f cd 0f 3e 19 af d9 bc 7d d9 b2 bb
       0.07979042 0.14043163 -0.02657275 -0.0054580555
0001e0 ba fb e3 bd 42 38 62 3e f1 ed 09 3e 44 30 01 be
       -0.111319974 0.22091773 0.13469674 -0.12616068
0001f0 ec fe 26 bd 7f b2 1d be 6f 78 95 bd 10 9b 1a bc
       -0.040770456 -0.15400122 -0.072983615 -0.009436384
000200 e5 51 15 be 6d 45 01 be 1d 38 12 3e d6 98 38 be
       -0.14582022 -0.1262414 0.14279218 -0.18027052
000210 9c c6 df 3b 34 bf 75 3d 89 e7 a6 3c e2 e5 5c 3d
       0.006829096 0.0599968 0.020374076 0.05393017
000220 8b d1 27 bc a0 56 bf 3b a5 c2 fd bc f2 7c 36 3d
       -0.01024283 0.005839184 -0.030976603 0.04455275
000230 8f 8c 52 bc 49 66 3e bd 23 be b2 3e e4 63 9f bd
       -0.012850895 -0.046484265 0.34910688 -0.077827245
000240 dd 0c bb bc 31 a7 8d bc 3f 6d 5f 3c fa a3 fb 3c
       -0.022833282 -0.017291637 0.013636886 0.030717839
000250 4c 34 96 3d a2 a6 a0 3d 01 99 65 be e3 68 44 3d
       0.073341936 0.07844283 -0.22421648 0.04795159
000260 e8 0b c4 bd d1 e3 e9 b9 39 2c 53 bd 8e d7 f6 3d
       -0.095725834 -0.0004461096 -0.051555846 0.120528325
000270 19 d0 c4 3b 41 ca 52 bb 6d e0 ae bc 6d ac 6d 3c
       0.0060062525 -0.003216401 -0.021347249 0.014506442
000280 ec 54 11 be 45 9e e7 bd f7 7c 96 bc 0d 2e 17 3e
       -0.14192551 -0.113094844 -0.018370135 0.1476366
000290 27 2b 4e be 4a 25 59 be 82 6c 5d ba c9 c6 0b be
       -0.20133649 -0.21205631 -0.000844665 -0.1365005
0002a0 10 60 d1 bd 2f 1e b3 3d 9a c4 1b 3e 9e 60 e1 3d
       -0.102234006 0.087459914 0.15211716 0.110047564
0002b0 ec 6c 47 3d 16 2e 40 3e 9f 59 20 bd 2b 2e a8 b9
       0.04868786 0.1876758 -0.03914797 -0.00032077855
0002c0 a8 62 23 3c 15 7c 0f 3e d0 70 85 bd 11 88 a9 bd
       0.009972252 0.14012177 -0.06515658 -0.08277906
0002d0 93 d3 3d be dd 92 1b be b9 bb ff bd f6 bf f2 bb
       -0.1853774 -0.15192743 -0.12486977 -0.0074081374
0002e0 fc 1d c6 3c 0c c3 c8 3c df ba c8 bc ce ed e1 3d
       0.02418422 0.024507068 -0.02450317 0.11031686
0002f0 1a b6 5d bd dc ff 0f be ad d0 43 3d f6 de 52 3d
       -0.054128744 -0.14062446 0.04780643 0.051482163
000300 8c 63 6f 3d 48 64 b7 bc eb 67 10 be 29 f9 cc ba
       0.058444545 -0.022386685 -0.14102142 -0.001563822
000310 21 3b 12 be ad a6 d1 bc 9f b5 7a be 74 8c c9 bd
       -0.14280368 -0.025592173 -0.24483345 -0.098412424
000320 40 17 2b be a8 97 27 bd 57 70 96 3d 21 ad 91 3d
       -0.16708088 -0.040916115 0.07345646 0.071131
000330 98 77 34 3e 50 a5 9d 3c 2e 1a 13 3e e3 04 23 be
       0.17623746 0.019243866 0.14365456 -0.15919833
000340 e1 1f ec 3d c1 85 99 bd 2e aa 2a 3c 92 30 df bd
       0.11529518 -0.07496215 0.010416551 -0.10897936
000350 3f 5e 14 bd d6 c4 5a be cf e0 89 3d 0a 06 fc bd
       -0.036222693 -0.2136415 0.06732332 -0.12305839
000360 2a d4 2a be 19 5b 1b 3e fe e8 0c 3d 9f 4b 03 3e
       -0.16682497 0.1517147 0.034401886 0.12821816
000370 ad bf c2 3d d9 a4 76 bc 09 1d 8c bd f4 e1 2a bd
       0.095092155 -0.015053951 -0.068414755 -0.041719392
000380 9e 95 77 3c 8c e5 84 3d 20 1e ef 3d 60 a7 28 be
       0.015111355 0.06489095 0.11675668 -0.16470098
000390 f1 72 b1 be 57 2a 07 3b 4e 15 11 bc 99 5f a7 3e
       -0.34658006 0.0020624602 -0.008855177 0.32690123
0003a0 a4 5f 2d 3c ac ff e7 3d 6b e8 b1 bc bd 11 54 3e
       0.0105818845 0.113280624 -0.02171727 0.20709892
0003b0 40 90 3e 3e a1 a9 8c bd 37 40 a7 bd d7 ee a4 3d
       0.18609715 -0.06868292 -0.08166545 0.080533676
0003c0 86 af 2c 3e bb 63 e3 bd e8 ad 70 be aa 6e f5 bd
       0.16863832 -0.111030065 -0.2350384 -0.11983998
0003d0 48 2f 25 3d ab 76 a0 bd 83 5c a9 bc 63 c0 85 bc
       0.040328294 -0.07835134 -0.020673996 -0.016327089
0003e0 79 52 21 3d ed fe 39 bd c3 32 b2 3b 71 87 04 be
       0.039385293 -0.04540913 0.00543818 -0.12942292
0003f0 c9 c9 b5 3d ad 5d 21 3e 54 9a e4 bc 46 46 3b 3a
       0.08876378 0.1575839 -0.02790562 0.00071439554

Agents_INT_01.fc1.bias f4 [128]
000000 ce 72 b2 3d 62 2a ce 3e 4d fd 56 3e 4f 46 d1 be
       0.087133035 0.4026671 0.20995064 -0.40873954
000010 23 98 94 3e 68 10 12 be f0 6b e6 bc 3a 0c 17 3e
       0.2902232 -0.14264071 -0.02812764 0.14750758
000020 48 f9 bd be 98 62 2c 3e 65 6f 4c be f8 59 a3 bd
       -0.3710425 0.16834486 -0.19964369 -0.079761446
000030 68 6e ac bd 33 ac d7 be 31 ec 6c 3e 40 5f c2 be
       -0.08419496 -0.42123565 0.23136975 -0.37963295
000040 ee f5 4f 3e 18 fa 13 3e 52 28 df be fd 56 b5 3e
       0.20308658 0.14450872 -0.4358545 0.3541793
000050 f6 48 b8 3e d8 82 b6 be 15 5f bc be 2a b6 2c 3e
       0.35993165 -0.356467 -0.36791292 0.16866365
000060 06 91 40 be 6c 59 d6 be 13 c6 20 3e e2 a4 d0 3e
       -0.18805322 -0.41865098 0.1570056 0.40750796
000070 4b 7f 14 3e 3b ab d4 3e 62 06 c0 3d 37 93 04 3e
       0.14501683 0.41536888 0.093762174 0.12946783
000080 ac 44 c8 be d4 1b 3a 3d 3d 1f 84 3d 3b 98 ac 3e
       -0.39114892 0.045436695 0.06451271 0.33709893
000090 a9 0f 70 be c1 f6 14 3e 3b ee 8b 3e 0e af d9 3e
       -0.23443474 0.14547254 0.27330193 0.4251637
0000a0 80 cf 18 be dd 7f 57 3e 98 5c a9 3e 04 aa 78 3c
       -0.14922905 0.2104487 0.33078456 0.015177254
0000b0 cc ca d1 be 21 c5 82 3e 38 32 b1 bd 5f 93 1b 3d
       -0.40975034 0.25541022 -0.086521566 0.03798234
0000c0 ce 30 b5 3d 3b c7 04 3e 6e d9 a2 be c2 c3 c0 3e
       0.088471994 0.12966625 -0.3180651 0.3764935
0000d0 7e fc 0f 3e 2e 2f c3 be a8 1f b4 3e 56 5b 98 3e
       0.14061162 -0.38121933 0.35180402 0.29757184
0000e0 6d c6 aa be 33 d3 67 be 2e 58 de be 74 38 de 3e
       -0.33354512 -0.2263916 -0.4342665 0.43402445
0000f0 2c 30 28 3e e2 d5 ba be 38 4a 93 3e c4 07 99 be
       0.16424626 -0.36491305 0.28767562 -0.29888737
000100 56 c2 3a be 05 45 e3 3e 7c e0 d8 be 6d c6 7e be
       -0.18238196 0.44388595 -0.42358768 -0.24880381
000110 75 8b 39 3e d8 0f c7 be 17 aa 05 3e d2 ed e2 3c
       0.18119605 -0.38879275 0.13053165 0.027701292
000120 05 01 5e be ee 17 84 3e 54 7a 6e be ea ed bd be
       -0.21680076 0.25799507 -0.23288852 -0.37095577
000130 e0 24 80 bc 34 fb a8 be 5e 29 dd be 8b 13 da 3e
       -0.015642583 -0.33004153 -0.43195623 0.42593035
000140 c4 32 7f 3e 68 01 8b be d4 a0 ae be 78 79 03 bd
       0.2492171 -0.2714951 -0.34107077 -0.032098264
000150 de 89 4e be 5f 30 bc be 3f 38 94 3e c9 a9 b0 3e
       -0.2016978 -0.36755654 0.28949162 0.34504536
000160 e8 e3 9f 3e 04 28 a9 be f6 dd 6d bd 30 2c c0 be
       0.31228566 -0.33038342 -0.058073007 -0.37533712
000170 b8 af d3 3e 1d 9c 75 bc e1 4e 82 3d d8 40 94 3c
       0.41345 -0.014990834 0.06362701 0.018097326
000180 80 60 56 be 57 3c ca 3e 80 d5 1e 3e f4 59 2b be
       -0.2093525 0.3949916 0.15511131 -0.16733533
000190 6c 49 62 3e ef 3c d3 be d2 98 ac 3e ae 08 b1 be
       0.2209832 -0.41257426 0.33710343 -0.34576935
0001a0 ff a0 ca 3b 49 2f 29 3c c6 4b c8 3e 1a 15 d2 3e
       0.006183743 0.010326215 0.3912031 0.41031724
0001b0 05 fe cc 3e 1d 6a 06 3d 7d ef be be 19 fa c6 3e
       0.40037552 0.03281604 -0.3729209 0.38862684
0001c0 de 69 a6 be 06 31 ca be 90 9a 74 bd f0 4e 85 bd
       -0.32502645 -0.39490527 -0.059717715 -0.06509197
0001d0 c2 94 86 be 2c e8 d5 be e9 51 3d 3d b8 bd c1 3e
       -0.26285368 -0.41778696 0.046220694 0.37840056
0001e0 21 fc 8c be 98 89 89 bd 11 14 df 3e 28 f4 87 3e
       -0.2753611 -0.06715697 0.43569997 0.26553464
0001f0 ed 44 b2 3e 30 f4 bb be 18 f2 c9 bd 0a c8 c3 be
       0.3481821 -0.36709738 -0.09860629 -0.38238555

Agents_INT_01.fc2.weight f4 [64, 128]
000000 ed a5 45 3e f3 76 3b 3d f3 b4 cb bd a7 99 16 3e
       0.19301577 0.045767736 -0.09946623 0.14707051
000010 89 3f a2 3d 31 26 b6 bd be e2 0c be 89 13 65 3d
       0.079222746 -0.08894003 -0.1375837 0.055926833
000020 37 e4 de 3d 2b c1 07 bc 6f 5c 36 be 6f 35 4a bd
       0.10883372 -0.008285801 -0.17808698 -0.049367364
000030 80 7e ce 3d 02 05 f0 3d 24 58 28 3e 59 05 be 3d
       0.10082722 0.11719705 0.16439873 0.09278364
000040 ee 2c 9f bc dc 60 2f 3e db a0 b0 3c 37 94 03 bd
       -0.019430604 0.17126793 0.021561077 -0.03212377
000050 fe 85 94 bc e2 82 f8 3c 21 59 1b bd cd 3b 0a 3e
       -0.018130299 0.030335847 -0.037926797 0.13499375
000060 2a 8f 75 bd 5c fa c1 3d 8c e1 be bd 53 91 50 be
       -0.059950985 0.094715804 -0.093203634 -0.20367937
000070 22 68 ac 3d 67 6c 05 be cd 70 f7 3c d8 de 30 3e
       0.08418299 -0.13029633 0.030205155 0.17272508
000080 1c 33 d3 bd 9b 69 82 be a2 94 a9 3d 01 cd 49 bd
       -0.10312483 -0.25471196 0.082803026 -0.049267773
000090 5d 4d dd bc e6 ab 24 be 91 f3 b7 bd 44 e1 0a bd
       -0.027014429 -0.16081199 -0.089820035 -0.033906236
0000a0 91 94 90 3d 33 db 98 bd 4a d6 83 bd 1f dd c0 3b
       0.07059587 -0.07463684 -0.06437357 0.0058857347
0000b0 d7 19 54 be 5c 4b 22 3e 75 f9 52 bd 46 ba dc bc
       -0.20712982 0.1584906 -0.051507432 -0.02694429
0000c0 ee 06 d8 3d 13 26 8b bd 9d 45 72 3e 9e ce 1e 3d
       0.10548197 -0.067943715 0.23659368 0.038771264
0000d0 df 16 ae bd 61 84 8e 3d c4 a1 88 bd e3 0b 87 3d
       -0.08500456 0.06958843 -0.06671479 0.06594064
0000e0 8e 0b 82 3e ad 5a be 3d d2 72 e6 bc 2c 00 3b 3d
       0.2539944 0.09294639 -0.028130922 0.04565446
0000f0 bd 27 17 bd a6 f4 fd 3b 42 0c 4b bd 59 6a 7e bd
       -0.03690313 0.0077501116 -0.049572237 -0.06211314
000100 55 3c 84 bd 6f 17 80 3d a7 30 76 bd 64 8c 81 bc
       -0.0645682 0.062544696 -0.060104992 -0.015814014
000110 02 0f 8f be 89 51 00 be cb 86 7d bd 46 40 36 3d
       -0.27941138 -0.12531103 -0.061896127 0.04449489
000120 8c c4 cb bd 60 95 58 3d 85 66 45 3e 2e 3e 10 bd
       -0.09949598 0.05287683 0.1927739 -0.03521555
000130 c8 dc 00 3e 7a 8d aa bb 8a 07 a7 3d ef 88 6e bd
       0.12584221 -0.0052048536 0.08155735 -0.05823606
000140 c6 e7 57 be be b9 97 bd 88 44 e5 bd 8e 35 86 bd
       -0.21084508 -0.074084744 -0.11194712 -0.065531835
000150 51 c4 b7 3d 04 6c bd 3c 91 56 13 bd d5 81 b5 bc
       0.08972991 0.023122795 -0.035971228 -0.022156635
000160 e7 58 30 bc 16 10 69 be fe fb 61 3d c0 2d 1d be
       -0.0107633835 -0.22760043 0.05517196 -0.15349483
000170 60 58 7a 3d 8f 57 04 be 3e b8 d8 bd 0f c5 23 3e
       0.061119437 -0.12924026 -0.105820164 0.1599314
000180 59 b9 53 bd 6f 73 54 be f6 84 7d 3d ae 73 f4 3d
       -0.051690433 -0.2074716 0.06189438 0.11936127
000190 d1 aa 11 be f8 df 4f be f1 a3 02 3e 8c 3b c8 bd
       -0.14225318 -0.20300281 0.12757851 -0.09776983
0001a0 a7 57 b4 bc f5 9b 0d 3e bd 06 44 bd 9e bc a7 3d
       -0.022014452 0.13829024 -0.04785799 0.08190273
0001b0 34 1e d9 bd 95 34 84 3d 2a f2 9e bd d4 56 1c bd
       -0.10601464 0.06455342 -0.07761033 -0.038168743
0001c0 66 d4 b2 3c 72 af 07 3c e6 72 f3 3d 08 53 a2 3d
       0.021829795 0.0082815755 0.118871495 0.07925993
0001d0 6d 36 8d bd 20 ba 06 be 21 d0 c4 bd 6f 82 c1 3d
       -0.068951465 -0.13156939 -0.0961001 0.09448706
0001e0 44 4f e3 bb 76 b8 a6 3d 48 fc 3b 3e 86 5d 05 3d
       -0.0069369394 0.08140652 0.18357956 0.032559894
0001f0 1d 9f 20 be 3a 59 45 be f2 ba a0 3d d5 74 95 3d
       -0.15685697 -0.19272318 0.07848157 0.072976746
000200 5b b6 00 be 44 34 7d 3c 19 29 a2 3d 63 86 33 be
       -0.12569563 0.015454356 0.07917995 -0.17531733
000210 bd 17 d9 bc 11 b6 51 3e 93 41 43 be df 48 82 bd
       -0.026500577 0.20479609 -0.19067983 -0.06361555
000220 1f 5c b5 bb 54 37 ae bd 7f a0 d9 3d 5c ba 7f 3d
       -0.0055346633 -0.08506647 0.10626315 0.062433586
000230 18 90 3b be 48 76 28 3d fa 2e 33 3c 1d 4f ec bc
       -0.18316686 0.041128427 0.010936493 -0.028846318
000240 a3 f2 f8 bc 6a 09 34 3d 1a 6a 76 3d 22 f8 2a bd
       -0.030389136 0.04395429 0.06015978 -0.041740544
000250 25 35 2c 3c 00 dd 1b be e7 1b a2 3d 40 d7 e6 3c
       0.0105107175 -0.15221024 0.07915478 0.028178811
000260 5c d1 49 bd 52 c8 b2 bd cc a7 e1 3c 88 0e 0b 3c
       -0.049271926 -0.08729614 0.027545832 0.008487351
000270 e7 10 b7 bd ed 6d de 3d d1 15 12 bd 8e 86 1c 3d
       -0.08938771 0.108608104 -0.035665337 0.03821426
000280 8c fa 05 3e b4 5d 08 be b0 a3 41 bb 48 da e9 bd
       0.13083857 -0.13316995 -0.0029547028 -0.11418587
000290 a7 b8 04 3e 65 9d a7 3c 08 24 a9 3d 67 cc 8c bd
       0.12961064 0.020460794 0.082588255 -0.06874924
0002a0 60 47 8c 3d 99 55 21 bd 5c df 97 3d 7b 62 d2 bd
       0.06849551 -0.039388273 0.07415649 -0.1027269
0002b0 21 a5 30 bd 6f d9 e6 3d 9f 04 9e bd 26 dd c6 bd
       -0.04312623 0.11271941 -0.07715725 -0.097101495
0002c0 64 58 0e be 71 d7 0d be e0 81 50 be 70 da f0 ba
       -0.13900906 -0.13851716 -0.20362043 -0.0018375646
0002d0 b9 97 81 bd f0 3a c7 bc cd 0d 01 3c f0 0a b9 3c
       -0.06327767 -0.024320096 0.0078768255 0.022588223
0002e0 15 ba 27 3e 6e c3 fc 3c 87 dc b0 bd b8 89 fb ba
       0.16379578 0.030854907 -0.08635812 -0.0019190824
0002f0 b2 96 e4 bd e8 e1 16 3d f9 ec 98 3e 63 5a 10 bd
       -0.11161555 0.036836535 0.29868296 -0.03524245
000300 25 63 ab 3c 57 08 5c bd 53 2d b0 3d 67 a8 52 be
       0.0209213 -0.05371889 0.08602395 -0.20572053
000310 06 af a0 3c a9 1c 9e bd d0 68 d4 bd 7d af 0c bd
       0.019614708 -0.0772031 -0.10371554 -0.034347046
000320 b0 e4 70 be 59 03 c0 bd cd 63 5a 3c b8 7d a1 bd
       -0.23524737 -0.093756385 0.013329458 -0.07885307
000330 61 8d 77 bd 48 aa 07 3e d4 79 7a 3c ea 3c a9 bd
       -0.060437564 0.13248551 0.015287835 -0.082635716
000340 d2 bd 09 3e 8c 3c 14 be a7 1a e1 bd 07 f6 7b be
       0.13451317 -0.14476222 -0.10991412 -0.2460557
000350 0c e3 09 bd 18 51 bd bd 1b 43 c8 3d 21 25 34 be
       -0.033663794 -0.09243983 0.09778424 -0.17592289
000360 dc 49 1b 3e a7 e1 ce bc a8 42 d4 bd d6 92 9f bd
       0.15164894 -0.025254084 -0.10364276 -0.077916786
000370 40 d3 e8 3d be 1f 61 bc b9 24 0d be 76 5b 06 be
       0.11368418 -0.013740478 -0.1378354 -0.13120827
000380 c9 72 18 3d 88 a3 55 3d 1a 2f 49 3d 3f 9f ee 3d
       0.037218843 0.05215791 0.049117185 0.116514675
000390 d4 b8 32 be da d4 be bd de d1 49 3d 29 f2 6e 3d
       -0.17453319 -0.09317942 0.04927241 0.05833641
0003a0 a6 81 60 be ec 13 78 be 5a f5 66 bd 1d d7 60 3d
       -0.21924457 -0.2422635 -0.05638633 0.054892648
0003b0 64 2f 89 3c 03 a8 b5 bc 8b 57 fb 3d 4f ae ad 3d
       0.01674623 -0.02217484 0.12272557 0.08480512
0003c0 bd 9d fd bd 72 0c 8c 3d 6f 12 fc 3d a3 aa d3 bc
       -0.12383602 0.06838311 0.123082034 -0.025838202
0003d0 da f7 68 be a0 1f 60 3e 7c 85 46 3d 98 7f b5 bc
       -0.22750798 0.21887064 0.048467144 -0.022155568
0003e0 77 3e 84 bd 00 33 58 3e 0d cf 1e be 9b a3 5f bd
       -0.06457227 0.21113205 -0.15508671 -0.054599386
0003f0 0b f1 f9 bd fc b5 4e be af 93 20 3d a6 06 53 bd
       -0.122041784 -0.20186609 0.039203342 -0.051520012

Agents_INT_01.fc2.bias f4 [64]
000000 6e dd b1 bd 6d f7 41 3d ed c2 51 bd 8c ca a3 3c
       -0.086848125 0.047355104 -0.051211286 0.019994043
000010 8a 68 f7 bc 0d 96 89 3d 84 10 42 bd 74 22 f8 bc
       -0.030201215 0.06718073 -0.04737903 -0.030289866
000020 ca b2 8e bd 1c 7d c2 ba 28 f7 db bc 46 b2 fe b9
       -0.06967695 -0.0014838311 -0.026851252 -0.0004857948
000030 d2 ca 61 bd 6b ad 1a bc 80 5e 29 3b 14 da 3d bd
       -0.055125065 -0.00944076 0.002584368 -0.046350554
000040 7b 1a 95 3d 53 1b 51 bd 1e be 7c bd 54 b6 2e 3c
       0.072804414 -0.05105145 -0.061704747 0.010663588
000050 06 77 70 bd a6 43 d9 bd f7 b1 a1 bd 01 04 a4 3d
       -0.05870726 -0.10608606 -0.07895272 0.08008576
000060 b3 70 c6 3d 51 f8 f7 3c 3a 93 9f bd 77 2f a4 bd
       0.096894644 0.030269774 -0.07791753 -0.08016866
000070 80 09 20 3c d1 35 a4 bd 90 ba 7a 3c 1a b6 14 3d
       0.00976789 -0.08018077 0.015303269 0.036306478
000080 8d 9d 17 3d 1f 75 34 3d 0c 48 92 3d 21 01 1b bd
       0.037015487 0.044057008 0.07142648 -0.037842873
000090 b2 25 e8 bc 67 50 50 bd 77 1e a3 3d 69 74 72 bd
       -0.028338287 -0.050857928 0.07964795 -0.05919305
0000a0 06 a4 0a 3d c0 a6 5f bd 17 17 a1 3d 58 27 d3 3c
       0.03384783 -0.054602385 0.07865732 0.025775596
0000b0 1d 22 da 3c 73 52 a3 3d e9 69 85 3d 05 b0 94 3d
       0.026627595 0.0797471 0.065143414 0.072601356
0000c0 7a 97 b6 bb e2 82 91 bc 50 35 c6 bc aa 38 0d bd
       -0.0055722566 -0.017762605 -0.024195343 -0.034477867
0000d0 ba 7f fb bc e9 5f 2f 3d e7 0a 7f bd 74 2b b8 3c
       -0.030700553 0.042816076 -0.062266257 0.022481658
0000e0 30 2c b7 bc c7 8a ac bc 99 8d a8 3d 3d 55 9a bd
       -0.022359937 -0.021062268 0.082301326 -0.07535789
0000f0 82 3f 39 bd d1 38 9b 3d ed 2e 40 bc 1f 1f 2e 3d
       -0.04522658 0.07579196 -0.011729938 0.04251015

Agents_INT_01.fc3.weight f4 [2, 64]
000000 46 28 6c be 64 91 a2 bc dd c6 9b 3d b9 f0 48 3e
       -0.23062238 -0.019844718 0.076062895 0.19623078
000010 75 71 e9 3d 9a 34 aa be 56 1d 1c 3e 35 1f 84 3e
       0.11398593 -0.33243257 0.15245566 0.2580506
000020 70 69 ef bd 8a 36 24 bd 4b 14 80 be 0a 8e 81 3d
       -0.116900325 -0.040091075 -0.25015482 0.0632592
000030 00 51 b3 be b9 c1 31 be cb b3 99 bd 31 d3 0e be
       -0.35022736 -0.17359056 -0.07504996 -0.1394775
000040 cc 2a 25 3e 2a 33 8d 3d 5c c3 a9 bc 5a e4 65 3e
       0.16129607 0.068945244 -0.020723037 0.2245039
000050 91 40 76 3e e7 6f a8 3d c5 57 bd bd 0e 52 a2 3c
       0.24048068 0.08224469 -0.09245256 0.019814517
000060 ad 6f cd be 27 aa 8f be c1 e7 8b be c2 a4 2a be
       -0.40124264 -0.28059503 -0.27325252 -0.16664413
000070 90 44 9c bd 69 b4 f7 3d 9a eb 9a be 14 4e a0 be
       -0.07630265 0.120949574 -0.30257875 -0.3130957
000080 74 58 48 3d 3c c5 fa bd 85 00 c4 3d ef 1f 29 bc
       0.04891248 -0.12244651 0.095704116 -0.010322555
000090 98 57 2d 3e cf 05 d0 3d bf 56 e2 3d bc 23 a4 3e
       0.16927946 0.10157358 0.11051702 0.32058513
0000a0 96 41 c8 3d 65 5e c3 bd a2 22 08 be ed dd 39 3e
       0.097781345 -0.09539489 -0.13294461 0.18151064
0000b0 46 db ad 3d 93 8a 87 bd a9 29 cf 3e 90 38 d0 3d
       0.08489089 -0.06618228 0.40461472 0.101670384
0000c0 75 57 a9 3c c0 59 df bc 94 28 94 be f6 5d ea be
       0.020671586 -0.027264476 -0.2893721 -0.45774812
0000d0 51 a4 14 be e2 59 4a 3d 36 01 c9 3c ef a7 51 bc
       -0.14515807 0.049402125 0.02453671 -0.012796386
0000e0 35 c1 36 be 4d 7d 7d 3e 4d 09 a6 bd 2f 0b f2 3d
       -0.1784714 0.2475483 -0.08107243 0.11818539
0000f0 f2 64 b3 bd c4 39 ea bd 5a 70 09 3e b5 c0 47 be
       -0.08759488 -0.11436799 0.13421765 -0.19507106
000100 d4 91 c6 bd e7 58 cd bd cb bc 92 3c c8 47 bc 3d
       -0.09695783 -0.100267224 0.01791229 0.09193379
000110 ea 90 7f be 6b dd ad bb fa 1a 31 be 22 0c 0e be
       -0.24957624 -0.005305936 -0.17295447 -0.13871816
000120 f4 ef 7b bd 75 e2 b4 be 70 1e 0e 3f 20 dc 5e be
       -0.061508134 -0.35329023 0.55515194 -0.21763659
000130 0f c4 8f be 29 66 b7 3d f2 60 2d 3d 8f 8d c5 bd
       -0.28079268 0.089550324 0.042328782 -0.09646141
000140 ac 9b 6f 3e 74 27 57 3e 9f e9 80 be 82 28 1d bd
       0.23399228 0.21011144 -0.2517824 -0.03836871
000150 ea 17 ab be b3 83 03 bc 3a 8d 45 bd 57 03 b1 3d
       -0.33416682 -0.008027005 -0.048230387 0.08643215
000160 55 67 ae 3d 6b 6d 11 3e 82 38 93 3e 4e fa bd bc
       0.08515803 0.14201896 0.2875405 -0.023190644
000170 5e cd 5d 3c dc ec 2e be 3a b5 89 be 7e 43 0b 3d
       0.013537733 -0.17082542 -0.26896077 0.033999912
000180 42 73 67 3e e5 06 c7 3c 2d 04 05 3e b3 c7 8c bd
       0.22602561 0.02429528 0.12989874 -0.06874027
000190 e7 b9 e1 3b 51 26 f5 3d 56 44 66 be 6a d5 1d be
       0.0068886164 0.11970199 -0.22487006 -0.15413442
0001a0 46 44 a3 3c c6 f9 ba 3d 60 a7 85 3d ab 3f 34 bc
       0.019930016 0.09129672 0.06526065 -0.011001508
0001b0 14 ea d0 3d 11 55 b4 bc 00 3a da bd da ef 89 3e
       0.10200897 -0.02201322 -0.10655594 0.26940805
0001c0 65 02 ba 3d 8e fa db bd c1 94 8c 3e c8 2c b5 bc
       0.09082488 -0.10741149 0.2745724 -0.02211608
0001d0 8a 16 4c be 17 17 83 be fc 5d 00 3c 83 ec 10 be
       -0.19930473 -0.25603554 0.007834908 -0.14152722
0001e0 4d 83 cd be ef 29 a1 be ff 0f b2 3e 97 92 26 3d
       -0.40139237 -0.31477305 0.3477783 0.040667143
0001f0 ed 45 31 3e 7e 5f 5f bd 52 50 cf bb 83 b0 7b 3e
       0.17311831 -0.054534428 -0.0063267136 0.24579053

Agents_INT_01.fc3.bias f4 [2]
000000 68 a9 d3 bd e9 97 a2 bd
       -0.10335046 -0.07939131

Agents_INT_11.fc1.weight f4 [128, 5]
000000 c6 09 05 3d 64 01 fa bc c4 29 6e be da 3d 43 bd
       0.032480024 -0.030518241 -0.2325812 -0.047666408
000010 e8 da 21 3c 33 bf 20 3e eb 6d 1d 3e 7e f9 a7 3d
       0.0098788515 0.15697937 0.15373962 0.08201884
000020 7a 23 0f 3d f0 ab 13 be 42 07 b6 bc 7f 26 5f bc
       0.034945942 -0.14421058 -0.022220258 -0.013620018
000030 ac 06 08 3e 4a 37 9f 3d 10 99 c7 3d 36 5f 97 3d
       0.13283795 0.077742174 0.09745991 0.07391207
000040 ea 37 15 3e 6e 62 04 be a7 78 85 bc 28 73 eb 3d
       0.14572111 -0.12928173 -0.016292883 0.11496574
000050 be 93 e8 bd c6 26 3d 3d a7 32 87 be e1 47 23 be
       -0.113563046 0.046179555 -0.26405832 -0.15945388
000060 61 57 ef 3d c9 21 13 bd ba 83 0f be 18 ea 83 3d
       0.11686588 -0.035920892 -0.14015093 0.06441134
000070 f6 62 87 3c 0f 68 67 bd 27 4d 09 be a9 1f 23 b9
       0.01652668 -0.056495722 -0.13408338 -0.00015556686
000080 2d b3 88 3c be 1f 54 be d2 5a 17 bd 7b 7a d5 bd
       0.016687 -0.20715234 -0.036951847 -0.10423752
000090 f6 bd 4d bd da 0f 35 bd 9a 2b 03 3d 0c 64 73 3d
       -0.05022999 -0.04420457 0.032024004 0.059421584
0000a0 28 ef de 3d 18 b7 c3 bd ba f0 c7 bc b2 69 41 be
       0.10885459 -0.09556407 -0.02440678 -0.18887976
0000b0 54 66 36 bc 9c bc e9 3d cc a7 e8 3d bb 4d 73 3e
       -0.011132795 0.114129275 0.1136013 0.2376012
0000c0 3d 40 f9 3d 8d 76 a9 bc 29 f4 99 be aa ea 0f be
       0.121704556 -0.020686412 -0.30069092 -0.14054361
0000d0 06 33 03 be 56 4f 78 bd fa 32 69 bd 22 65 9d 3d
       -0.12812433 -0.060622536 -0.05693338 0.07685305
0000e0 75 e9 d0 bd 27 42 e0 3d 55 0a 4c be 9c 86 cb 3d
       -0.102007784 0.109501176 -0.19925816 0.09937784
0000f0 2c ff f9 3d 06 80 d9 3b cf 64 2a 3d 73 41 bb 3b
       0.12206873 0.006637576 0.041600045 0.0057145893
000100 8a fa c0 3d 93 55 40 3d f9 cb f0 3d fd ba 97 bd
       0.094227865 0.04695661 0.11757655 -0.07408712
000110 8d 65 d2 bd 67 79 85 3e 73 0c d3 3d 98 38 f9 bb
       -0.102732755 0.26069185 0.10305109 -0.0076056235
000120 c1 a6 80 3e da 10 4f 3d 81 41 ae bd 2c b2 8d bd
       0.25127223 0.05055318 -0.08508588 -0.06918749
000130 73 35 55 3d 50 9b 3f be d5 ff 26 3e 59 d1 9f 3d
       0.052052926 -0.18711591 0.1630853 0.07803602
000140 61 1b 83 bd 30 15 5b 3c 8d 76 a9 bd cd 63 ae 3d
       -0.064017065 0.013371751 -0.08274565 0.08515129
000150 7e b8 0c 3e 06 9f 01 be c2 7f 20 bd a0 ae 8d 3d
       0.13742253 -0.12658319 -0.03918434 0.06918073
000160 fd a4 5f bd 4a 2b 2b 3c 83 14 d0 3d 2b b8 ed 3d
       -0.054600704 0.010447333 0.10160162 0.11607393
000170 e1 a6 09 be 95 1c 82 bd 36 42 4c bd ab 34 4c 3d
       -0.13442566 -0.06353108 -0.04986783 0.049854916
000180 c4 77 db 3b 36 6e 39 be e0 52 7a bd 75 b3 02 be
       0.006697627 -0.18108448 -0.061114192 -0.1276377
000190 eb cb 6d 3e 28 46 c7 bd 9e 00 b4 bd a2 d7 3e be
       0.2322232 -0.09730178 -0.0878918 -0.18636945
0001a0 86 c9 e7 3d f0 32 0c 3e 89 2a 11 be 31 c5 f5 3c
       0.113177344 0.13691306 -0.14176382 0.030001255
0001b0 1c e2 bc 3d 2a 03 bf 3d 65 b7 86 bb f7 dc 62 3d
       0.092228144 0.09326775 -0.004111218 0.05538651
0001c0 d0 b3 f8 3d 74 5d 48 3c e7 76 ee 3d 08 74 cc be
       0.121436715 0.012229312 0.116437726 -0.39932275
0001d0 0d 54 4e 3a 21 c9 8d be aa 8a 83 3c ce 6d 1f bd
       0.0007870801 -0.27692512 0.016057331 -0.038923077
0001e0 7b d3 89 be 7c 70 20 3d 01 64 93 3d 35 7f 11 bd
       -0.2691916 0.039169773 0.071968086 -0.035521705
0001f0 30 6c 83 bd fd c7 28 3e 93 ec cc 3d 0a 15 4e 3d
       -0.064171195 0.1648254 0.100060605 0.050313033
000200 1d 59 85 3e 47 fb 3e 3e 9c 4a 37 bd 34 16 83 3e
       0.2604455 0.18650542 -0.044748887 0.25602877
000210 12 17 43 3d 63 a3 e8 3d 25 a7 21 3d b5 00 0d 3d
       0.047629423 0.113592885 0.039466042 0.034424502
000220 74 00 76 3e f1 30 16 bd 54 bd 6c be a8 b4 49 be
       0.2402361 -0.036667768 -0.23119098 -0.19697821
000230 37 45 02 be aa 3f 9b 3c 39 f6 fe bd 42 18 c2 bd
       -0.12721716 0.018951256 -0.12449307 -0.09477283
000240 fd 76 07 3d f9 60 b9 bd e7 e0 ae bd 53 72 f7 3c
       0.03307246 -0.09051699 -0.085389905 0.030205881
000250 ad 27 0a be d6 f2 ff bd 28 cb a6 3d 24 6e 6a bd
       -0.13491698 -0.12497489 0.08144218 -0.057233945
000260 b9 d4 08 be 2e 9b 1c 3e de bf 3f be 30 e7 66 bb
       -0.13362397 0.15293571 -0.18725535 -0.0035233013
000270 e4 42 b0 bd 1a ab 0c 3d 5e 7c 66 bd df 92 b1 3d
       -0.086065084 0.034342863 -0.05627095 0.086705916
000280 48 c3 a6 3d 51 36 0e 3d e6 f6 66 3c ad f1 89 be
       0.08142716 0.03471977 0.014096951 -0.26942196
000290 6d cb f6 bd 44 b7 71 bd f6 54 e4 bc 80 34 27 bd
       -0.12050519 -0.059012666 -0.027872544 -0.040821552
0002a0 39 b9 8c 3d a8 77 58 3d a6 a4 b9 be 3b 85 91 3d
       0.06871266 0.052848488 -0.3625843 0.0710549
0002b0 4a 84 38 be 43 f7 3b be c2 f0 f2 3d 07 8f c8 3d
       -0.18019214 -0.18356042 0.11862327 0.09792905
0002c0 ea 81 84 be 00 c7 cd 3d b8 be ee bc cd 8d bd 3d
       -0.25880367 0.10047722 -0.029143676 0.09255562
0002d0 59 da 56 3e 2a 7e ad bc 09 c4 7c 3e 6a d1 ae 3d
       0.2098173 -0.021178324 0.24684156 0.08536036
0002e0 03 20 2d be 31 05 c4 bb d3 44 b3 3c b1 63 1d bd
       -0.16906743 -0.005982064 0.021883404 -0.03842515
0002f0 f7 fd 94 bd 01 6f 9d 3d 8f ed ff 3c ce b6 7a 3d
       -0.072750024 0.07687188 0.031241206 0.061209492
000300 2d 43 d4 bd 75 14 2e 3d 25 4b 20 bd 7f 7b 91 bd
       -0.10364375 0.042499978 -0.039134163 -0.07103633
000310 d1 ec 79 3e 24 d6 82 3d 82 76 b8 bd 96 61 f7 bc
       0.24406745 0.063885 -0.090069786 -0.0301979
000320 e0 99 a0 3d 67 be 08 3e f9 8e fb bb 52 b8 61 3c
       0.07841849 0.13353883 -0.007676956 0.013776856
000330 5b b7 fc bd af bf df 3d d5 c5 6d bd 1b 3b de bd
       -0.1233966 0.109252326 -0.058049995 -0.10851117
000340 15 4f d6 3d b5 01 82 3d f6 bf 35 3d 5c 32 73 bd
       0.104643025 0.06347982 0.04437252 -0.0593742
000350 3b b8 fd bd 2c 82 30 be e8 46 3d 3e 8d 5d bf bd
       -0.12388655 -0.17237157 0.1848408 -0.09344015
000360 6a 7f 6c bd c7 92 1d 3e a2 cb 2f be a6 f0 34 be
       -0.0577387 0.15388022 -0.17167524 -0.17669925
000370 35 46 1a 3d f9 51 29 be d3 7b 7e be fd 0c 39 bd
       0.03766461 -0.16535176 -0.24851923 -0.045178402
000380 32 18 f6 bc 03 ba 87 be 22 f7 a8 3d 38 14 26 3e
       -0.030040834 -0.26509103 0.08250262 0.1621865
000390 44 3b aa bd 3f 88 f4 bd e1 03 4d be 43 04 94 3c
       -0.08312085 -0.119400494 -0.20021011 0.018068438
0003a0 a9 a0 f4 bd 86 32 a5 3c 88 d0 4c 3d 88 5f 4a be
       -0.11944706 0.020165693 0.05000356 -0.19763005
0003b0 78 3a 4e 3e 56 73 82 bd 60 05 74 bd 11 cf f6 3d
       0.20139492 -0.06369655 -0.05957544 0.120512135
0003c0 a3 c5 95 3d 7a e6 c8 3b 3d 5c 08 3d db 1c 8d be
       0.07313087 0.0061309906 0.03329109 -0.27561077
0003d0 ea 60 6e 3d a7 a0 00 bd a9 24 b4 3d 85 3a 09 3e
       0.058197893 -0.03140321 0.08796055 0.1340123
0003e0 70 3c 07 be 48 3c ec 3c 90 3d c5 3d b7 59 e7 3d
       -0.13206649 0.028837338 0.09630883 0.112964086
0003f0 73 8e c6 3d 65 9f b3 3d bd 18 3a be 78 c3 40 3e
       0.09695139 0.087706365 -0.181735 0.18824565

Agents_INT_11.fc1.bias f4 [128]
000000 47 74 b5 3e c9 a1 d4 3e 3c 5c f0 bd b8 56 91 3e
       0.35440275 0.41529682 -0.11736342 0.28386474
000010 45 36 ef 3d cc d2 b1 bd 99 10 96 3e 29 4a cb be
       0.11680273 -0.086827844 0.29309538 -0.39705017
000020 71 4f 9f be 61 16 da 3e 14 73 9a bd 31 b6 02 3e
       -0.31115296 0.425952 -0.07541481 0.12764813
000030 19 77 8d 3e 06 3a d4 3e 27 2e b3 be 46 24 a4 3e
       0.27629927 0.41450518 -0.3499615 0.32058924
000040 d6 ec 57 3d 78 04 f6 bd 32 ea 36 be 28 2a 89 be
       0.0527161 -0.12012571 -0.17862776 -0.26789975
000050 1a 9f 91 3e 7a 0c 0f be f1 8d 52 be 02 7b a3 3e
       0.28441697 -0.13969603 -0.20561959 0.31929785
000060 ad 37 b2 3e fc 1f 83 be 53 bd d5 be 90 c4 a6 3e
       0.34808102 -0.2561034 -0.41746005 0.3257184
000070 46 07 44 3e 36 08 69 be fb 5c d4 be 97 d6 8c 3e
       0.191434 -0.22757038 -0.41477188 0.2750747
000080 f2 38 b4 be f8 34 c4 be 83 08 d2 bd 39 3f 9a 3e
       -0.35199696 -0.38321662 -0.1025553 0.3012636
000090 0a c6 a5 be 34 61 80 3e 43 0b 9c 3e 0e 9e 06 3d
       -0.32377654 0.2507416 0.30477342 0.032865576
0000a0 ed 93 e1 3d e0 c9 9d be f0 c9 52 3c b4 a4 46 be
       0.11014543 -0.3081808 0.012865528 -0.19398767
0000b0 45 c7 e0 3d 41 20 9e 3e 6a bb bb 3e fc 01 10 3e
       0.10975508 0.30883983 0.36666423 0.14063257
0000c0 09 9e ad 3e 90 ff d9 bd d8 99 c7 3e 9e 15 b9 3e
       0.33909634 -0.10644448 0.3898456 0.36149305
0000d0 66 f6 d0 be b5 d1 5a be 27 a1 6e be a8 37 9d be
       -0.40812987 -0.2136906 -0.23303662 -0.30706525
0000e0 e3 e8 9c 3e a0 e5 9a bd 94 c7 7e 3d d2 09 43 3e
       0.30646428 -0.07563329 0.06220205 0.19046715
0000f0 c0 6d 98 3d 47 bd de 3e 27 56 fc 3b 00 c8 07 be
       0.07442808 0.43503782 0.0077007 -0.13259888
000100 6b 50 a5 3d 9f 0f 9b 3e d2 5e 1f bd 10 fa db bd
       0.08071979 0.30285355 -0.038908787 -0.10741055
000110 0e 7a 62 3e d6 b2 8e be 24 26 a4 be f4 1c e4 bd
       0.22116873 -0.27870816 -0.3206035 -0.11138335
000120 08 f5 a6 3e f6 e3 85 3e a9 8e 81 be 93 16 c2 3d
       0.3260882 0.26150483 -0.25304154 0.09476962
000130 19 bf eb 3a 7c e7 e3 bd 0f 3f b8 be f8 01 9e be
       0.0017986029 -0.111281365 -0.3598561 -0.30860877
000140 5b 04 18 3e 0d 50 65 be 57 81 6d 3d dd 0c 77 be
       0.14845411 -0.22393818 0.057984676 -0.24126
000150 45 02 6d 3d 44 fa 83 bd a3 99 01 3e 89 e8 4f 3e
       0.057863493 -0.06444219 0.12656264 0.20303549
000160 49 be e3 3e 16 a5 ce be 9a b4 ad be 7d df b5 39
       0.44481114 -0.40360326 -0.3392685 0.00034689522
000170 60 0f db be d5 ab e0 be c4 15 4a be b2 f6 8d 3d
       -0.42785168 -0.43881097 -0.19734865 0.06931819
000180 d0 a0 a2 bd 06 7f 8c bc fd cb 5d 3d b9 f5 9f 3e
       -0.07940829 -0.017150413 0.054149617 0.3124216
000190 3f 06 a0 3d e6 8f d8 bc de 98 db 3e 78 9a 7c 3e
       0.07813691 -0.026435804 0.42890066 0.246683
0001a0 9a f2 8f be c6 2f 23 be 7e 57 b2 3c 6f 0f e3 be
       -0.28114778 -0.15936193 0.021770235 -0.44347712
0001b0 ac 4c 12 be fc a9 c6 3e 69 e2 c3 3e 2a 3b a0 be
       -0.1428706 0.38801563 0.38258675 -0.3129514
0001c0 b5 70 b4 be 44 87 99 be c5 c4 7f 3e 5f bc ca 3e
       -0.3524224 -0.29986012 0.24977405 0.3959684
0001d0 ec b0 c2 3e f4 ea e1 bd 98 2d 73 3d 14 12 2e be
       0.38025606 -0.11031142 0.059369653 -0.16999084
0001e0 ec 6b a7 bd 8e 7f 51 3e b8 37 21 be 4b a3 b7 3e
       -0.08174881 0.20458815 -0.15743911 0.3586677
0001f0 01 44 01 3e eb 97 d1 be bd b0 eb bc ec b1 9c 3e
       0.12623598 -0.40936217 -0.028770799 0.30604494

Agents_INT_11.fc2.weight f4 [64, 128]
000000 40 b9 37 3e cd 0d 63 3d 1c 9b c5 bd 61 fc b1 3c
       0.17941761 0.055433083 -0.096487254 0.021726789
000010 bf 33 07 be 3b fd 83 3d f0 e9 52 bd f4 59 33 3e
       -0.13203333 0.06444784 -0.05149263 0.17514783
000020 fd 04 08 be 62 8b 50 3d 9d 0a 94 3c d4 f6 d8 bd
       -0.13283153 0.050914176 0.018071467 -0.10593954
000030 b5 18 57 bc a2 f2 78 ba 78 85 91 3c dc d0 e8 3c
       -0.013128449 -0.00094966043 0.017763838 0.028419904
000040 d0 b9 00 be e3 9a f2 3d a6 e0 e7 bb cf 77 87 be
       -0.12570882 0.118459485 -0.0070763407 -0.26458594
000050 89 1e 96 3d cf f9 67 3d 56 a7 83 bc dd 00 ad bb
       0.07330043 0.05663472 -0.016071003 -0.005279644
000060 61 11 3d bc bb 16 82 bd 0b ce 4d 3c b7 cd 38 bd
       -0.011539788 -0.06351992 0.0125613315 -0.04511806
000070 d2 91 38 3e d4 c5 e0 bd 5f f0 9b 3a 61 90 c0 3d
       0.18024376 -0.10975233 0.0011897198 0.09402538
000080 1b 4b 9a 3d 49 07 22 bd 97 66 1a 3d eb b4 f7 3d
       0.075338565 -0.03955773 0.037695494 0.12095054
000090 92 5c 0c be a3 6a 7d bd bc 65 97 3d ac d1 9a 3d
       -0.13707188 -0.061869275 0.07392451 0.07559523
0000a0 3a a3 31 3e c2 45 64 bd 71 ff bf bd 7f b0 c1 3d
       0.17347422 -0.05573059 -0.093748935 0.09457492
0000b0 ed ed 60 be 69 df 6c 3e 3c d4 10 3d 37 23 04 bc
       -0.21965761 0.23132099 0.035358652 -0.0080650365
0000c0 41 db 8c 3d 29 ae c0 3d 97 e2 2e 3d 52 51 18 3d
       0.06877757 0.094082184 0.04269656 0.037186928
0000d0 62 0b 77 bd fa a0 96 bd cd e4 92 3d 0a a3 9a bb
       -0.06031359 -0.073549226 0.071725465 -0.004719143
0000e0 9b aa 5c bd 11 5b 48 3d 2f 67 ca bd df 16 bd bd
       -0.05387364 0.048914973 -0.09882962 -0.09232878
0000f0 2b 9a ee bc 2d 0d 90 3e 75 a6 95 bd 75 10 e2 3d
       -0.029126247 0.28135052 -0.0730714 0.11038295
000100 6f 31 cb bb ee 87 1c bd cf f8 8c bc 88 7d cb bd
       -0.0062009613 -0.03821557 -0.017208485 -0.099360526
000110 e8 88 93 bc c5 61 c2 3d 4d 9b 7d bc 22 f2 38 be
       -0.018009618 0.09491304 -0.015478921 -0.18061116
000120 f1 db 5a bc 77 0d 67 bd dc 94 9a 3c 09 e2 ab bd
       -0.013358102 -0.056409325 0.01886981 -0.08392722
000130 b8 b4 cc 3d 30 9d 35 bc 46 25 5a 3c e9 74 c6 bd
       0.09995407 -0.01108484 0.013314551 -0.096902676
000140 4c b8 75 bd 22 54 08 bd 3a 87 ae bd fc 0e f9 3d
       -0.059990212 -0.03328336 -0.08521886 0.12161061
000150 b3 04 8c bd c3 6d 15 3d 16 81 0b be 1b 34 07 bd
       -0.06836834 0.03648163 -0.13623461 -0.033008676
000160 d1 20 5f be fa 96 d2 bd db 39 55 bd c1 a1 91 bc
       -0.21789862 -0.10282703 -0.05205713 -0.017777326
000170 79 7a 55 bd 18 6d 51 3d 66 a9 f2 3d 6a c9 4a 3e
       -0.052118752 0.05112943 0.118487164 0.19803396
000180 ec f1 3f bc f6 04 58 3b cf 21 53 bd 18 b7 a8 3d
       -0.0117153935 0.0032961941 -0.051545914 0.08238047
000190 89 9d b2 3d 6a 5b 06 bd 11 27 bc 3d 63 75 a7 3c
       0.08721454 -0.032802023 0.09187139 0.020441717
0001a0 dc aa fb bd 36 5c 06 3e 39 4d d4 3c 73 57 df bd
       -0.12288448 0.13121113 0.025915729 -0.109053515
0001b0 0a ce 22 3e 09 05 a6 3b 3c c4 d2 3c b1 54 b7 3d
       0.1589891 0.005066518 0.025728337 0.089517005
0001c0 48 7c 49 3e 93 aa 98 bc 0c c7 0c be 32 92 af 3b
       0.19676316 -0.018636024 -0.13747805 0.005358004
0001d0 10 b7 47 3e 08 0d 8b 3d 6b 51 80 3c a6 f0 4f 3d
       0.19503427 0.06789595 0.015663823 0.05076661
0001e0 3a 20 8e 3d bc 56 d6 bc 8e c6 0f 3d e4 7a 59 bd
       0.069397405 -0.026164405 0.035101466 -0.053095713
0001f0 e7 67 65 3d 97 02 d6 bc b1 f8 86 3b 83 13 35 3d
       0.056007292 -0.026124282 0.004119002 0.04420806
000200 99 6e b4 bd 6a 49 26 3e c1 96 1f 3d fb fe 6c 3c
       -0.08810157 0.16238943 0.03896213 0.014465089
000210 75 d5 90 bd 97 bd 37 be c7 a1 8a 3e 0c 6f 4f be
       -0.07071964 -0.17943417 0.2707655 -0.20257205
000220 ab 54 9b 3d 8e e8 2f bd 37 7a ed 3b a3 a9 85 bd
       0.075845085 -0.04294639 0.007247235 -0.06526496
000230 3b 01 9c 3d 22 3e 0d 3e af 0b 69 3e 12 46 a3 3d
       0.07617422 0.13793233 0.22758363 0.07972349
000240 be 19 1b be 32 ac f3 bb 25 d2 81 3d fb 9d 32 3e
       -0.15146539 -0.0074362988 0.0633891 0.17443077
000250 a8 7a 05 bd 04 6f ea 3d ca a7 e5 bc bb 1c a8 bd
       -0.032587677 0.11446956 -0.02803411 -0.08208605
000260 59 16 1d be 60 3a 30 3e 30 86 6d 3d e8 dc c1 3d
       -0.15340556 0.17209768 0.0579893 0.09465963
000270 b1 de f0 3d f3 d7 81 bb b5 8f 10 3e 78 aa 19 3d
       0.11761225 -0.0039625107 0.1411732 0.037516087
000280 7f ea 4d 3d 4c 15 42 bd 90 eb 58 3c a7 ca 8f 3b
       0.05027246 -0.04738359 0.013239756 0.0043881717
000290 67 be 45 3b 18 82 9d bd e2 1d ec bd be 5a 9f 3d
       0.0030173303 -0.07690829 -0.11529137 0.077809796
0002a0 2e 29 41 be f1 38 ac 3d 39 b1 42 be ab 08 ca 3d
       -0.18863365 0.08409298 -0.19012918 0.098649345
0002b0 5d b3 49 3e 1f ee 92 3d 48 81 86 3d c5 70 6e 3d
       0.19697328 0.07174324 0.06567627 0.058213014
0002c0 c3 6b 5f bd 63 e5 49 3c 3d 1a b3 bd 73 e8 98 bd
       -0.05454613 0.012322756 -0.08745239 -0.07466211
0002d0 e0 f4 04 3d 53 fe 89 bc 2d 98 51 3b 71 50 b5 bd
       0.032460093 -0.016844904 0.0031981573 -0.088532336
0002e0 af 33 8b bd 40 bc bf 3d 10 fc b9 3d 8f fb a2 3d
       -0.06796967 0.09362078 0.0908128 0.07958137
0002f0 13 bc 44 3e 19 fb e7 bc 9b 40 b6 3c 87 82 55 be
       0.1921237 -0.028317975 0.022247603 -0.20850573
000300 30 d0 f0 bd a7 62 d8 bd 7b 3e e7 3c fd c1 68 3c
       -0.117584586 -0.105656914 0.028228035 0.014206407
000310 4f 2b e1 bd f9 cb b1 3d cd 28 9a 3d 84 3e 96 3c
       -0.109945886 0.08681483 0.075273134 0.018340357
000320 22 bc e0 bd 62 f2 0b be 58 f0 13 3e e3 03 f8 3c
       -0.109733835 -0.1366668 0.14447153 0.03027529
000330 a3 4f 16 be a4 63 bb 3d 2f 85 11 3d cf e2 09 3d
       -0.14678816 0.09149864 0.035527404 0.033663567
000340 d6 32 78 bd 44 0f 6b 3b eb f5 19 bc 1c 81 dd 3d
       -0.060595356 0.0035867253 -0.00939701 0.10815641
000350 c6 b4 3c bd 0f e2 10 bd 39 2d 58 bd 69 9c e7 bd
       -0.046070836 -0.035371836 -0.052777503 -0.1130913
000360 70 82 71 be 4b 0d 4d bd 2a 75 e1 3d 77 0c 59 3d
       -0.23584914 -0.050061505 0.110086754 0.052990403
000370 75 41 b8 bd ad f6 f9 3d 1b d4 ed 3d 33 b4 e5 3d
       -0.0899686 0.12205253 0.116127215 0.11216011
000380 48 9c a8 3c 12 49 16 3c fa e4 14 3e 8c da 5b 3d
       0.020582333 0.009172695 0.14540473 0.05367522
000390 63 0a 68 b9 bc 33 23 be dd 24 a4 bc 7e dd 89 3d
       -0.00022129113 -0.15937704 -0.020037109 0.067316994
0003a0 16 1d 77 bd ba e1 5e bd 0b 71 30 be a6 8b 14 3d
       -0.060330473 -0.05441449 -0.17230622 0.03626599
0003b0 96 45 1c be c4 ab 7f 3c fa 63 a3 3b 0c 06 d4 bd
       -0.1526092 0.015604917 0.0049862834 -0.10352716
0003c0 ef cc 14 3e d1 92 0b bc 7c f5 15 bd b1 12 f4 3d
       0.14531301 -0.0085188905 -0.036611065 0.119176276
0003d0 5b f9 02 3e d8 48 4f bd 5e 8e 6c bd b6 f7 91 bd
       0.12790434 -0.05060658 -0.05775296 -0.07127325
0003e0 5f 15 49 bd aa 43 78 3d b2 06 29 be 6d 72 0a be
       -0.049092647 0.060611404 -0.1650646 -0.13520212
0003f0 e3 2c f4 3d f1 ba d8 bd 6a e3 4b be dc 9f 83 3d
       0.11922624 -0.10582531 -0.1991097 0.06426975

Agents_INT_11.fc2.bias f4 [64]
000000 1c 77 44 bb b2 e6 43 bd ba a1 e0 bc e9 2c 36 bd
       -0.0029978221 -0.04782743 -0.027420867 -0.044476423
000010 38 dd a6 3c 15 92 1d 3d 40 da e5 3c 19 bb af 3d
       0.020369157 0.038469393 0.028058171 0.08580608
000020 aa 41 88 bd 25 6e 9b 3d 92 2b ec bc 2c bd 5e bd
       -0.066531494 0.07589368 -0.02882937 -0.054379627
000030 37 a8 2b 3d f8 cc 8d bd e0 5b 17 3c c7 70 6a bd
       0.04190847 -0.0692386 0.009238213 -0.05723646
000040 7e 7c 56 3d fd 52 91 3d 53 de a1 3d d7 0f 27 3b
       0.05236482 0.07095907 0.07903733 0.002549162
000050 90 07 34 bd 14 f0 e8 3c d2 d0 37 3d a8 3a 75 bc
       -0.043952525 0.02843479 0.04487688 -0.014967598
000060 d0 dc 96 bd 64 5a a2 3d eb 6f 14 bc ff 89 82 3d
       -0.073663354 0.07927397 -0.009059886 0.06373977
000070 be d8 1f bd b0 5d 38 bd 54 3e e9 bc 4d 58 86 3d
       -0.03902506 -0.045011222 -0.028472103 0.06559811
000080 8d c8 bd 3b f8 88 5b bd b0 4c b2 bd 9a ea 93 3d
       0.00579173 -0.05359742 -0.08706033 0.07222481
000090 46 82 5f 3d ff 78 33 3d b3 50 26 bd 06 56 64 3d
       0.054567598 0.043816563 -0.040604305 0.0557461
0000a0 0f a9 19 3d e2 f1 ca 3d 8d 97 a0 3c 1f a5 07 bc
       0.037514742 0.09909417 0.019603515 -0.008279114
0000b0 80 7a 2d bb 4f fd 58 bd ad 96 3d 3d 68 fa 5e 3d
       -0.002647072 -0.05297595 0.046286274 0.054438025
0000c0 e9 cf ae bd 18 2f 59 3d 15 d1 b0 3d 24 c3 7b 3d
       -0.085357495 0.053023428 0.08633629 0.061465397
0000d0 da 57 6c 3d 36 d0 97 3d dc 7f 9a bc da d3 48 3d
       0.05770097 0.0741276 -0.018859796 0.049030162
0000e0 0e a7 28 bd 1a ef 61 3d 78 4c a2 bc 91 69 2b bd
       -0.04117494 0.055159666 -0.019811854 -0.041848723
0000f0 fe 49 45 bd e8 e8 6c bc b2 9e 96 ba 78 14 12 bd
       -0.048166268 -0.014459826 -0.0011491387 -0.03566405

Agents_INT_11.fc3.weight f4 [2, 64]
000000 a2 8d 89 bd bb 30 04 be 7b 01 32 3e 07 6d 63 3e
       -0.067164674 -0.12909214 0.17383377 0.2220956
000010 9f d4 ea bd 65 30 62 bd f7 cb a5 bd 37 99 2a 3e
       -0.114663355 -0.055221934 -0.08095544 0.1666001
000020 fa a6 a9 be 2b af 3e be ed 4c 47 be e0 6a 2a 3e
       -0.33135206 -0.18621509 -0.19462939 0.16642332
000030 ea c2 bc bd c3 c4 13 3d 80 b7 a9 3e 9b b3 46 be
       -0.092168644 0.03607632 0.33147812 -0.19404452
000040 7b b8 01 3e d8 aa a7 3e 34 57 a3 bc a1 1e c9 bd
       0.1266803 0.3274753 -0.019939043 -0.09820295
000050 15 46 4a bc c1 f4 75 3e 68 4d 4c 3e 1c ab 33 3e
       -0.01234581 0.24019147 0.19951403 0.17545742
000060 0d c7 a3 be f1 3c 86 be 20 40 5b bd 0e 47 70 bd
       -0.319878 -0.2621837 -0.05352795 -0.058661513
000070 7b ce 85 3d af 8f 87 3d e4 f1 c0 bd bb 5e 94 3d
       0.06533524 0.06619202 -0.09421137 0.07244631
000080 a1 9d ab be b9 89 4a 3e a6 9c 23 3d b6 72 1e 3e
       -0.335187 0.197791 0.039944313 0.15473446
000090 8d a6 9e 3d b0 b3 f5 bd a7 34 cc 3d 88 da 14 3b
       0.07746611 -0.11997163 0.0997098 0.0022713263
0000a0 b1 c1 ec bd 27 92 09 be 1b cd 09 be e4 9d 2e bd
       -0.11560381 -0.13434659 -0.13457148 -0.042631045
0000b0 0f 83 26 3c be 8c a6 3e 46 6f b5 bd 7e dc bc bd
       0.010163083 0.32529253 -0.08859114 -0.09221743
0000c0 e7 f8 65 3d 60 be 87 bd 21 b5 46 be b1 68 e6 bd
       0.056145575 -0.06628108 -0.19405033 -0.11250437
0000d0 a7 d4 0f 3e 69 d5 ca be 03 6f 71 3e 09 19 c1 be
       0.14045964 -0.39615944 0.23577504 -0.37714413
0000e0 92 f4 01 be 0f ee d2 3d 23 e0 71 be cf 46 df 3c
       -0.12690952 0.10299312 -0.23620658 0.027255444
0000f0 2b 8b bb bc ec 45 33 bc 10 8a 83 be 42 38 33 be
       -0.022893509 -0.010941964 -0.2569127 -0.1750193
000100 7a 98 a8 bd 06 eb a4 3d b8 14 91 bd 56 fc 93 3d
       -0.082322076 0.0805264 -0.0708403 0.07225864
000110 5e c8 06 bd 6b df d7 3d 77 b6 48 be 4f 0c c9 39
       -0.03290593 0.105406605 -0.19600855 0.00038346878
000120 6c 38 8c be 95 fe a2 3e da 8d a0 3d 42 ed 3a 3d
       -0.27386796 0.31834856 0.07839556 0.045636423
000130 08 6c 8e be d3 b8 22 bc b2 69 e9 bd 41 37 cd bc
       -0.27816796 -0.009931761 -0.11397113 -0.025050761
000140 9b 2b 8c be 58 ce be 3d d9 06 ec be fa f2 27 3d
       -0.27377018 0.09316701 -0.46098974 0.041003205
000150 27 4a b0 be d6 3b b1 3d 92 2e 89 bc 37 8f 5f be
       -0.34431574 0.08653991 -0.01674584 -0.21831976
000160 63 c4 a3 3c 7c 01 41 3e 16 61 5b 3d f5 39 7a be
       0.019991105 0.18848222 0.053559385 -0.24436171
000170 f8 bf f0 3d 7b f2 bf bd ce 2f dd 3d e8 60 95 3e
       0.11755365 -0.09372421 0.10800134 0.29175496
000180 85 05 90 bd 7c a5 87 bd 53 03 7f bd e7 4d 8d 3c
       -0.07032303 -0.066233605 -0.06225903 0.01724906
000190 1f 06 fa 3d 13 25 44 bd 12 15 2c be 48 4c b1 bd
       0.12208199 -0.04788692 -0.16804913 -0.086571276
0001a0 21 6d ac be 9c 60 86 bd da 00 ac 3c 14 06 bd 3d
       -0.3367701 -0.065613955 0.0209965 0.09229675
0001b0 1f 40 1f 3e d9 37 21 3e 38 47 74 be 8d 8c 8f bd
       0.15551804 0.1574396 -0.23855293 -0.0700923
0001c0 67 78 1d 3d 7a d2 de bc 33 c3 e3 be bc f3 65 be
       0.038444903 -0.027199972 -0.44484863 -0.22456259
0001d0 a0 5f fd bd d9 e1 d6 3d 22 82 32 3e 3a 75 42 3e
       -0.12371755 0.10492296 0.17432454 0.18990031
0001e0 d1 70 60 bc c1 86 a9 be 74 87 37 3e 8b a5 9d be
       -0.0136987725 -0.33110622 0.17922765 -0.30790362
0001f0 ca cc 6c be 8c fc eb 3e 7e 70 ad 3d fa a9 9d bd
       -0.23124996 0.46091115 0.08468722 -0.07698436

Agents_INT_11.fc3.bias f4 [2]
000000 c4 97 aa 3d 39 4f 58 3d
       0.08329728 0.052809928
